[2025-05-09 22:27:17][base_learner.py:360][INFO] [RANK0]: DI-engine DRL Policy
VAC(
  (encoder): FCEncoder(
    (act): ReLU()
    (init): Linear(in_features=18, out_features=128, bias=True)
    (main): Sequential(
      (0): Linear(in_features=128, out_features=128, bias=True)
      (1): ReLU()
      (2): Linear(in_features=128, out_features=64, bias=True)
      (3): ReLU()
    )
  )
  (critic_head): RegressionHead(
    (main): Sequential(
      (0): Linear(in_features=64, out_features=64, bias=True)
      (1): ReLU()
    )
    (last): Linear(in_features=64, out_features=1, bias=True)
  )
  (actor_head): DiscreteHead(
    (Q): Sequential(
      (0): Sequential(
        (0): Linear(in_features=64, out_features=64, bias=True)
        (1): ReLU()
      )
      (1): Sequential(
        (0): Linear(in_features=64, out_features=3, bias=True)
      )
    )
  )
  (actor): ModuleList(
    (0): FCEncoder(
      (act): ReLU()
      (init): Linear(in_features=18, out_features=128, bias=True)
      (main): Sequential(
        (0): Linear(in_features=128, out_features=128, bias=True)
        (1): ReLU()
        (2): Linear(in_features=128, out_features=64, bias=True)
        (3): ReLU()
      )
    )
    (1): DiscreteHead(
      (Q): Sequential(
        (0): Sequential(
          (0): Linear(in_features=64, out_features=64, bias=True)
          (1): ReLU()
        )
        (1): Sequential(
          (0): Linear(in_features=64, out_features=3, bias=True)
        )
      )
    )
  )
  (critic): ModuleList(
    (0): FCEncoder(
      (act): ReLU()
      (init): Linear(in_features=18, out_features=128, bias=True)
      (main): Sequential(
        (0): Linear(in_features=128, out_features=128, bias=True)
        (1): ReLU()
        (2): Linear(in_features=128, out_features=64, bias=True)
        (3): ReLU()
      )
    )
    (1): RegressionHead(
      (main): Sequential(
        (0): Linear(in_features=64, out_features=64, bias=True)
        (1): ReLU()
      )
      (last): Linear(in_features=64, out_features=1, bias=True)
    )
  )
)
[2025-05-09 22:30:11][base_learner.py:360][INFO] [RANK0]: learner save ckpt in ./ppo_forex_trading/ckpt\ckpt_best.pth.tar
[2025-05-09 22:30:11][base_learner.py:360][INFO] [RANK0]: === Training Iteration 0 Result ===
[2025-05-09 22:30:11][learner_hook.py:228][INFO] 
+-------+------------+------------------+-----------------+------------------+
…
